state_dict_model.pt (torch, 824007 bytes, 10 tensors)

conv1.weight f4 [6, 1, 5, 5]
0.039520048 -0.024710743 -0.04840343 -0.011720688 0.28196496 -0.1946559 0.13257708 -0.18914148
-0.3947114 0.06499135 -0.095659375 -0.031034922 0.29691234 0.11331134 0.3143216 0.10815319
-0.35286164 0.12929524 0.27089754 -0.33536237 0.23711896 -0.20467444 0.3721705 -0.0539283
-0.43096313 0.13047087 0.2894131 -0.17768885 -0.3227762 0.23418972 -0.009301155 0.30943292
-0.11048912 -0.4151463 -0.08686451 -0.02486613 0.28545287 0.0023956662 -0.12677829 -0.21193625
0.16812426 0.13582788 0.12842411 -0.02176604 -0.37467805 -0.12265246 -0.16403289 0.22734107
0.27705765 -0.004896072 -0.08141398 -0.061704725 -0.16606554 -0.20466763 -0.21023636 -0.08649728
-0.16775756 -0.18525101 -0.1503041 -0.23585775 -0.07763379 -0.14797308 0.030483777 -0.11158899
0.13931026 0.055424333 0.08457947 0.15118702 0.063890025 0.2848305 0.12732607 0.24378663
0.24720143 0.22853565 0.20089461 0.01554461 -0.047682766 0.09897648 0.2924801 0.13563068
-0.32260144 -0.09332202 0.38067177 0.2709746 0.23905692 -0.45239106 -0.28583398 0.15411137
0.1200485 0.21229792 -0.31613368 0.100838356 -0.07381619 -0.12739727 0.018192844 -0.20719312
0.09040135 -0.15049012 0.13106094 -0.2188342 -0.29306057 -0.4256424 -0.24759394 0.04529456
-0.012849846 -0.40328482 -0.51835275 0.12182414 0.20813163 0.31435344 -0.21581188 -0.3683124
0.32066995 0.32920635 0.048446756 -0.22050788 -0.18702821 0.36044902 0.40761343 0.26526016
-0.19408286 0.050210625 0.15650335 0.27220768 0.15568875 -0.04803953 0.2246371 0.32187292
0.2552028 -0.057593733 0.38923815 0.08217807 0.114008226 -0.17749494 -0.10892925 0.4018765
0.053442087 0.0047448375 -0.06391874 -0.07969025 0.119015984 0.06832208 0.09204348 -0.33375213
-0.39751735 -0.1625458 0.11908905 -0.33567166 -0.26284662 -0.18150574
00000000: c6df 213d 2f6e cabc ad42 46bd 2108 40bc
00000010: b65d 903e e053 47be 49c2 073e 4eae 41be
00000020: 9d17 cabe 2f1a 853d 10e9 c3bd f33c febc
00000030: e504 983e c70f e83d c3ee a03e 6b7f dd3d
00000040: 48aa b4be f965 043e 15b3 8a3e 9eb4 abbe
00000050: 50cf 723e 2d96 51be 228d be3e ece3 5cbd
00000060: 33a7 dcbe 289a 053e f42d 943e 11f4 35be
00000070: ec42 a5be 6ecf 6f3e df63 18bc fe6d 9e3e
00000080: 1f48 e2bd 0e8e d4be 05e6 b1bd 0eb4 cbbc
00000090: e126 923e 9c00 1d3b 2bd2 01be d105 59be
000000a0: c428 2c3e 7716 0b3e 9c81 033e b24e b2bc
000000b0: cdd5 bfbe 3731 fbbd 3df8 27be 19cc 683e
000000c0: 80da 8d3e 3b6f a0bb 5fbc a6bd 18be 7cbd
000000d0: 160d 2abe 6494 51be 3348 57be 7c25 b1bd
000000e0: a3c8 2bbe 71b2 3dbe 51e9 19be b284 71be
000000f0: 77fe 9ebd 4186 17be 1db9 f93c c588 e4bd
00000100: 59a7 0e3e a004 633d 0038 ad3d c5d0 1a3e
00000110: c6d8 823d 4ed5 913e c461 023e 34a3 793e
00000120: 5f22 7d3e 4005 6a3e 51b7 4d3e d2ae 7e3c
00000130: 014f 43bd 2eb4 ca3d f4bf 953e c5e2 0a3e
00000140: 042c a5be 9d1f bfbd 69e7 c23e 2fbd 8a3e
00000150: 56cb 743e cd9f e7be d558 92be 5fcf 1d3e
00000160: fddb f53d a064 593e 46dc a1be 5784 ce3d
00000170: f12c 97bd 6e74 02be 2909 953c 6f2a 54be
00000180: 5824 b93d 151a 1abe d734 063e 1316 60be
00000190: 090c 96be cded d9be 4489 7dbe ca86 393d
000001a0: 2988 52bc 597b cebe c4b2 04bf ef7e f93d
000001b0: 7520 553e eff2 a03e cafd 5cbe 7193 bcbe
000001c0: da2e a43e bc8d a83e 1b70 463d d1cc 61be
000001d0: 5384 3fbe c68c b83e b5b2 d03e 2ed0 873e
000001e0: a8bd 46be a8a9 4d3d 6a42 203e ce5e 8b3e
000001f0: df6c 1f3e 19c5 44bd 4507 663e 87cc a43e
00000200: f1a9 823e 68e7 6bbd 394a c73e fa4c a83d
00000210: 257d e93d 3cc1 35be 4c16 dfbd c2c2 cd3e
00000220: 17e6 5a3d 957a 9b3b d4e7 82bd a434 a3bd
00000230: a7be f33d 72ec 8b3d 4b81 bc3d 8fe1 aabe
00000240: 6587 cbbe 6872 26be f6e4 f33d 28dd abbe
00000250: d593 86be a4dc 39be

conv1.bias f4 [6]
-0.018965364 -0.009526265 0.010813452 0.009150573 0.014301923 0.002524921
00000000: 405d 9bbc 0d14 1cbc e82a 313c 49ec 153c
00000010: 9d52 6a3c 2579 253b

conv2.weight f4 [16, 6, 5, 5]
-0.2887974 -0.15142645 -0.22288425 -0.42090142 -0.35848203 0.15092866 -0.011256883 -0.4207194
-0.54185563 -0.056361895 0.07563432 -0.3308214 -0.57145274 -0.14166825 0.47206107 -0.5135234
-0.7212584 -0.52146286 -0.062306467 0.3661118 -0.6903548 -0.47766355 -0.22018915 0.059895802
0.1366639 0.24806455 -0.08415296 -0.23582579 -0.12301899 0.18804814 -0.4184517 -0.2944401
-0.22335769 0.13554983 0.28376222 -0.2251662 -0.14962585 -0.012052044 0.060714934 0.13422193
0.19536479 0.31527308 0.14773159 -0.12411138 -0.5462685 0.18704978 0.24999723 0.24792604
-0.025539903 -0.18060905 -0.6973348 0.07953549 -0.21286358 -0.48493686 -0.38276342 -0.25144768
-0.2757746 0.15793267 0.24890816 0.091239326 -0.09600383 0.019910809 0.0025451514 -0.07343302
-0.2427725 0.16429548 0.024972368 0.045592155 -0.03782515 -0.31047374 0.021930682 0.13461591
0.16540302 -0.005089982 -0.18618667 0.017271971 0.034327086 0.043267086 -0.06974558 -0.002980393
0.044621203 0.021151837 -0.08079992 -0.13447353 0.13370445 -0.052192055 -0.048735123 -0.120625824
0.12981917 0.1284314 -0.02473216 0.038280427 0.07009134 0.0803088 0.13255838 -0.27624753
-0.3508813 -0.07562388 -0.14910884 -0.13801545 -0.0722105 0.18017204 -0.09039945 -0.28465772
-0.42377016 -0.35648537 -0.27287298 -0.23046112 -0.40774286 -0.42109635 -0.46965793 -0.2972953
0.19479364 -0.017516248 -0.21989183 0.24971119 0.1195038 0.0049756896 -0.007680323 -0.014281097
0.13401894 0.07800018 -0.13229203 -0.13372158 -0.04828463 -0.3695716 -0.001551168 0.1121503
0.117439166 0.13880582 -0.14492662 0.21493855 0.16681339 0.19787557 -0.14453414 0.078352615
0.2263497 0.29882953 -0.028821811 -0.37991807 0.12123615 0.048844848 0.020005869 -0.1725498
-0.30216426 0.05117856 -0.032040864 -0.14388864 -0.13981347 -0.37558895 0.18591213 -0.037638173
-0.13411179 -0.0022808253 -0.29300377 0.12635683 -0.22742599 -0.086210795 -0.33502916 -0.11829913
-0.09718189 -0.058779303 0.09770711 -0.23865768 -0.06528013 -0.22801359 0.15973425 -0.112893134
-0.084349655 -0.018112687 -0.085269794 -0.034173388 -0.6127865 -0.04605425 -0.251923 -0.055125788
-0.17914668 0.10505151 -0.124834366 -0.028399656 -0.099862084 0.074985124 0.093105875 -0.20796733
-0.05681104 0.13584667 0.2026472 -0.11692166 -0.14976452 -0.12415215 0.24076211 -0.03702072
-0.049212478 0.28217447 -0.39754274 0.002947273 -0.19416867 0.13995735 0.055500615 -0.06738083
0.26392907 -0.1842528 -0.12048948 -0.07955706 0.12226424 -0.055674907 -0.09809344 -0.04019859
0.12327345 -0.00726692 -0.034103137 0.19587597 0.01356102 0.06799891 -0.117575444 0.15372941
0.2006063 0.021181433 -0.107928805 0.005334297 0.13404945 -0.21907963 -0.22768386 0.023195606
-0.018333329 -0.105949655 0.038608823 -0.23821115 0.093829714 0.036063682 0.12639359 -0.23434056
-0.0055598565 0.11462276 -0.254762 -0.086223826 0.08094673 0.25193548 -0.24875192 -0.05559854
-0.14304732 0.25223395 0.17339271 -0.27691367 0.19359124 -0.14564228 0.22388507 -0.058647536
0.03424721 0.09982056 0.20840737 0.22044976 -0.095509425 0.2875002 -0.0075203283 0.05715542
00000000: 41dd 93be 890f 1bbe c53b 64be 6480 d7be
00000010: f58a b7be 0b8d 1a3e ca6e 38bc 8868 d7be
00000020: 0db7 0abf bbdb 66bd 2be6 9a3d 6c61 a9be
00000030: ba4a 12bf 7b11 11be fdb1 f13e 4576 03bf
00000040: 64a4 38bf 977e 05bf 1135 7fbd 0173 bb3e
00000050: 18bb 30bf 5190 f4be 4479 61be 4d55 753d
00000060: 9ff1 0b3e a204 7e3e 6358 acbd 517c 71be
00000070: 61f1 fbbd b18f 403e 4d3f d6be dac0 96be
00000080: e1b7 64be 93cd 0a3e 4849 913e f891 66be
00000090: 8537 19be f075 45bc 39b0 783d 7971 093e
000000a0: b50d 483e 796b a13e f346 173e 1b2e febd
000000b0: 41d8 0bbf fa89 3f3e 46ff 7f3e 53e0 7d3e
000000c0: 0f39 d1bc 94f1 38be 8984 32bf 81e3 a23d
000000d0: e9f8 59be a549 f8be 91f9 c3be c0bd 80be
000000e0: 5432 8dbe 1ab9 213e c8e1 7e3e afdb ba3d
000000f0: a89d c4bd fe1b a33c 8ecc 263b 0d64 96bd
00000100: 5b99 78be 133d 283e da92 cc3c d7be 3a3d
00000110: 8bee 1abd 6af6 9ebe f9a7 b33c c1d8 093e
00000120: 695f 293e ddc9 a6bb b8a7 3ebe f37d 8d3c
00000130: 8f9a 0c3d d438 313d c5d6 8ebd b252 43bb
00000140: b9c4 363d 9e46 ad3c 6e7a a5bd 6eb3 09be
00000150: d2e9 083e 56c7 55bd 7b9e 47bd ac0a f7bd
00000160: 51ef 043e 8583 033e 199b cabc f0cb 1c3d
00000170: 0c8c 8f3d f178 a43d 62bd 073e 5170 8dbe
00000180: b7a6 b3be b1e0 9abd fdaf 18be ec53 0dbe
00000190: 19e3 93bd 057f 383e 5923 b9bd a8be 91be
000001a0: 67f8 d8be 4085 b6be 02b6 8bbe 00fe 6bbe
000001b0: acc3 d0be f199 d7be 0177 f0be 1737 98be
000001c0: fc77 473e 3c7e 8fbc 532b 61be 4ab4 7f3e
000001d0: 69be f43d 1c0b a33b 38ab fbbb 43fb 69bc
000001e0: 433c 093e 8fbe 9f3d 9077 07be 4fee 08be
000001f0: 1bc6 45bd 7d38 bdbe 9050 cbba 0eaf e53d
00000200: f283 f03d 1d23 0e3e a567 14be da18 5c3e
00000210: 21d1 2a3e e59f 4a3e c200 14be 5677 a03d
00000220: 37c8 673e 2f00 993e b81b ecbc 9f84 c2be
00000230: a94a f83d 8911 483d 59e3 a33c e5b0 30be
00000240: 46b5 9abe 9ca0 513d 483d 03bd 8b57 13be
00000250: 432b 0fbe 324d c0be c05f 3e3e 7c2a 1abd
00000260: 9a54 09be e679 15bb 9704 96be af63 013e
00000270: 5ce2 68be 498f b0bd f188 abbe d046 f2bd
00000280: 4c07 c7bd 91c2 70bd aa1a c83d ae62 74be
00000290: 97b1 85bd 657c 69be 6091 233e 8434 e7bd
000002a0: 83bf acbd 0f61 94bc eea1 aebd 65f9 0bbd
000002b0: 93df 1cbf 62a3 3cbd 0dfc 80be 94cb 61bd
000002c0: 3a72 37be 3f25 d73d 29a9 ffbd 65a6 e8bc
000002d0: 7e84 ccbd cd91 993d 4bae be3d 63f5 54be
000002e0: b1b2 68bd 641b 0b3e bf82 4f3e a074 efbd
000002f0: df5b 19be 7b43 febd 588a 763e 0aa3 17bd
00000300: 0693 49bd 2c79 903e b98a cbbe 0927 413b
00000310: 27d4 46be fb50 0f3e 9d54 633d f6fe 89bd
00000320: b621 873e c4ac 3cbe 30c3 f6bd d0ee a2bd
00000330: ad65 fa3d 5f0b 64bd 37e5 c8bd 47a7 24bd
00000340: ca76 fc3d 581f eebb bbaf 0bbd b693 483e
00000350: 0a2f 5e3c 0343 8b3d 65cb f0bd 3e6b 1d3e
00000360: bd6b 4d3e af84 ad3c c709 ddbd 54cb ae3b
00000370: 4244 093e 6956 60be f525 69be b604 be3c
00000380: c72f 96bc 22fc d8bd 4924 1e3d a0ed 73be
00000390: cb29 c03d 83b7 133d 526d 013e f9f6 6fbe
000003a0: 752f b6bb 56bf ea3d 2a70 82be 1e96 b0bd
000003b0: 66c7 a53d b0fd 803e d3b8 7ebe 4bbb 63bd
000003c0: ff7a 12be cf24 813e dc8d 313e a1c7 8dbe
000003d0: c83c 463e 4023 15be 2142 653e 6638 70bd
000003e0: cd46 0c3d b96e cc3d be68 553e 95bd 613e
000003f0: 729a c3bd 3a33 933e 166d f6bb cd1b 6a3d

conv2.bias f4 [16]
-0.01017877 -0.0007227786 0.03931412 0.0034284124 -0.024008974 0.013513337 0.023176951 -0.0074669733
0.022344183 0.002063731 0.001104055 -0.100681596 0.007261857 0.0030325984 -0.00018011374 0.01727697
00000000: dbc4 26bc da78 3dba d807 213d 37af 603b
00000010: 78ae c4bc 0b67 5d3c 97dd bd3c 83ad f4bb
00000020: 260b b73c a93f 073b f0b5 903a 2732 cebd
00000030: dff4 ed3b 8fbe 463b eadc 3cb9 6f88 8d3c

fc1.weight f4 [120, 1600]
-0.26662236 -0.23501 -0.43998024 -0.3438947 0.001054608 0.080820166 0.32333186 0.26539442
0.3436842 0.16610293 -0.2916764 0.012656692 -0.34989747 -0.2651818 0.18509142 -0.12977621
0.12791702 0.24865867 0.36613172 0.3581188 -0.35082597 -0.21242772 -0.11995042 -0.47514775
-0.33983934 -0.40251154 0.008340443 0.20443031 0.22346507 0.17773837 -0.3286559 -0.21054475
-0.120042816 -0.21778148 -0.3114342 -0.15748027 0.12692805 0.13243146 0.1144852 0.12229573
-0.19315171 -0.0049219653 -0.050161842 -0.059821565 -0.15809241 -0.30552185 -0.072574176 0.3757287
-0.029162524 -0.094825104 -0.060440026 -0.14597964 0.09119532 -0.1510762 -0.010369521 -0.23173445
-0.21709354 -0.052770887 0.08631903 0.16215558 -0.15911035 -0.10455367 0.06450033 -0.058187496
-0.2853896 -0.34356084 -0.14970392 -0.14585684 0.044875424 0.04616674 0.28671178 -0.061289083
0.121967055 0.159036 -0.021025864 -0.087917104 -0.37889695 0.0034555795 0.20540029 0.14052816
0.062409 0.04891056 0.17922784 -0.11522958 -0.22222847 -0.028096998 0.00011846422 -0.1744002
0.12086835 -0.022122474 0.08804433 -0.19491534 0.05576564 -0.038813617 0.1679812 0.085995324
-0.03729689 0.33426356 0.124457136 0.024558192 0.23550984 0.25468954 0.18712409 0.14816129
0.16144894 0.17962605 0.06545697 -0.22545883 -0.11331112 -0.30159315 0.30962774 0.28166056
0.20024212 0.087116525 -0.092792235 -0.0017035945 0.08294626 -0.083607495 0.10693104 -0.10918373
0.47908983 0.26190135 0.0758364 -0.35258523 -0.31105062 -0.45884797 -0.5087977 -0.25869524
-0.11407939 0.04655668 0.44316968 0.21869306 0.06492403 -0.074655496 -0.25258398 -0.6900356
-0.87701386 -0.48218477 -0.27211738 0.0019647875 0.3279119 -0.086342186 0.22105719 0.07104981
-0.22478555 -0.41765672 -0.7206744 -0.6539906 -0.40617383 -0.09452593 0.14916134 -0.11040937
0.1408487 -0.16104929 -0.14635384 -0.026841441 -0.13159725 -0.3925167 -0.15608671 0.008933147
0.42018953 -0.11169937 0.030432424 -0.15121973 -0.06530711 -0.060783297 0.26426905 0.1945475
0.051227987 0.20563546 -0.023629574 0.07139677 -0.29043168 -0.1329324 -0.03634999 -0.09465472
0.11313898 0.24625868 0.10735888 0.12841004 0.18341605 0.07365491 -0.08315766 0.017929351
-0.24885479 -0.38375613 -0.04187627 0.21094407 0.021699267 0.28009126 -0.13916709 -0.105740055
0.021574784 0.13553815 0.042981595 0.078418 0.16515781 0.06957557 0.34627363 0.18368381
-0.106314 -0.13781908 -0.22636345 -0.206291 -0.10482427 0.0020236021 0.14619745 0.0901436
-0.0053845784 -0.047472306 -0.038271874 -0.12060885 -0.17204894 0.0404601 -0.0104543455 0.035991672
0.19267406 0.29129988 0.061181303 -0.18875405 -0.03017396 -0.119252205 -0.10433743 -0.23700821
-0.015968654 0.08735041 0.20073386 0.21836074 0.19879074 -0.07173189 -0.114960745 -0.0785318
-0.06984039 -0.30239365 -0.19818148 0.1172843 0.24718557 0.051494636 0.16304715 -0.2606263
-0.048127152 -0.019656377 -0.1230397 -0.15175967 -0.16614309 0.02471717 0.31467074 -0.0067025893
-0.026095966 0.09972384 -0.0633143 -0.016386325 -0.016340582 -0.13815308 -0.07139322 -0.052814174
00000000: ba82 88be 76a6 70be 1745 e1be f712 b0be
00000010: c63a 8a3a 0b85 a53d c18b a53e c7e1 873e
00000020: 60f7 af3e e316 2a3e 9c56 95be 045e 4f3c
00000030: c325 b3be e9c5 87be 9b88 3d3e 0ee4 04be
00000040: aefc 023e 61a0 7e3e 9e75 bb3e 595b b73e
00000050: 769f b3be a786 59be 91a8 f5bd 9146 f3be
00000060: 6cff adbe fe15 cebe 5aa6 083c 2e56 513e
00000070: 07d4 643e 0c01 363e 9645 a8be 0b99 57be
00000080: 02d9 f5bd 1c02 5fbe 4e74 9fbe 8242 21be
00000090: 6df9 013e 1d9c 073e 3777 ea3d 2f76 fa3d
000000a0: 90c9 45be 7048 a1bb 8176 4dbd 7507 75bd
000000b0: fae2 21be 5c6d 9cbe c5a1 94bd 835f c03e
000000c0: 3fe6 eebc aa33 c2bd f68f 77bd b07b 15be
000000d0: 9dc4 ba3d b8b3 1abe ece4 29bc cc4b 6dbe
000000e0: c54d 5ebe 4926 58bd 08c8 b03d 1d0c 263e
000000f0: d3ed 22be 3c20 d6bd c018 843d 0356 6ebd
00000100: 961e 92be 35e7 afbe fc4b 19be 7f5b 15be
00000110: 4bcf 373d 5619 3d3d e3cb 923e 430a 7bbd
00000120: ddc9 f93d 55da 223e 6f3e acbc e20d b4bd
00000130: c8fe c1be 0177 623b 7454 523e 9de6 0f3e
00000140: 94a0 7f3d 7056 483d 8187 373e 7cfd ebbd
00000150: dc8f 63be ad2b e6bc fe6f f838 f795 32be
00000160: d389 f73d 313a b5bc 9650 b43d e397 47be
00000170: 836a 643d 07fb 1ebd 4403 2c3e 511e b03d
00000180: a0c4 18bd 9824 ab3e 62e3 fe3d 432e c93c
00000190: 7e29 713e ab66 823e 759d 3f3e 98b7 173e
000001a0: df52 253e e4ef 373e 4e0e 863d aede 66be
000001b0: a90f e8bd 6b6a 9abe 8787 9e3e d035 903e
000001c0: 450c 4d3e 266a b23d db09 bebd 254b dfba
000001d0: bbdf a93d 683a abbd a9fe da3d b89b dfbd
000001e0: 434b f53e ef17 863e 1d50 9b3d 0d86 b4be
000001f0: 0742 9fbe 1fee eabe 9140 02bf b473 84be
00000200: 75a2 e9bd 38b2 3e3d 23e7 e23e 13f1 5f3e
00000210: e4f6 843d fbe4 98bd b052 81be 2ca6 30bf
00000220: fb83 60bf ece0 f6be f852 8bbe aac3 003b
00000230: 12e4 a73e 2cd4 b0bd d15c 623e 9082 913d
00000240: 2f2e 66be 1ad7 d5be 1e7e 38bf ee6b 27bf
00000250: 04f6 cfbe d096 c1bd c0bd 183e 4f1e e2bd
00000260: a43a 103e 1bea 24be c8dd 15be 95e2 dbbc
00000270: 6ec1 06be f3f7 c8be 32d5 1fbe 565c 123c
00000280: 1523 d73e a4c2 e4bd 6b4d f93c 58d9 1abe
00000290: bcbf 85bd e8f7 78bd 464e 873e 7637 473e
000002a0: 70d4 513d 1a92 523e cf92 c1bc 7838 923d
000002b0: 76b3 94be 6e1f 08be bae3 14bd 55da c1bd
000002c0: 69b5 e73d 3c2b 7c3e f9de db3d ec7d 033e
000002d0: 6bd1 3b3e 63d8 963d 904e aabd 93e0 923c
000002e0: cad3 7ebe af7b c4be 7486 2bbd b901 583e
000002f0: a9c2 b13c 1f68 8f3e d181 0ebe 3e8e d8bd
00000300: 9abd b03c 83ca 0a3e 780d 303d 9e99 a03d
00000310: 211f 293e a37d 8e3d c74a b13e 9c17 3c3e
00000320: 28bb d9bd 7220 0dbe d2cb 67be f33d 53be
00000330: 1bae d6bd 699e 043b c9b4 153e 359d b83d
00000340: 1e71 b0bb 5272 42bd f8c2 1cbd c601 f7bd
00000350: 992d 30be 7db9 253d b448 2bbc 016c 133d
00000360: 594c 453e 4225 953e 3f99 7a3d be48 41be
00000370: 612f f7bc 803a f4bd ddae d5bd 48b2 72be
00000380: b2d0 82bc c6e4 b23d 2d8d 4d3e f599 5f3e
00000390: cd8f 4b3e 2be8 92bd 8a70 ebbd 48d5 a0bd
000003a0: 7a08 8fbd 57d3 9abe 16f0 4abe c032 f03d
000003b0: 371e 7d3e 0aec 523d d5f5 263e cf70 85be
000003c0: fa20 45bd 6906 a1bc 3dfc fbbd e366 1bbe
000003d0: 6a21 2abe aa7b ca3c 861c a13e 65a1 dbbb
000003e0: 35c7 d5bc 033c cc3d edaa 81bd 9d3c 86bc
000003f0: afdc 85bc 0078 0dbe 9c36 92bd ad53 58bd

fc1.bias f4 [120]
0.007393453 -0.037317272 0.013436789 -0.07032477 -0.02211247 -0.022306265 -0.030115658 -0.027545648
0.061236527 -0.0032518443 0.058782887 0.0035624378 -0.04649272 -0.23950318 -0.011706467 -0.025499059
-0.066875845 -0.028972067 -0.04687035 -0.014520175 -0.038864743 -0.20505701 0.0037080494 0.20209658
-0.054650832 0.055420205 -0.13789223 0.14203654 -0.09083186 0.040881816 -0.042850796 -0.010065265
-0.028611012 -0.04679718 -0.044525016 -0.1324401 0.015243577 -0.16665658 -0.05141643 -0.0364633
-0.038419906 -0.019769866 0.051394865 0.047335822 0.007188551 -0.16424763 -0.0049875835 -0.2999753
-0.20566326 -0.047136016 -0.05846293 -0.047348388 -0.010356219 0.038332626 -0.031582046 -0.016348923
0.00722272 -0.044018302 -0.17948122 -0.01446567 -0.15269177 0.00549932 -0.06923917 -0.0455706
-0.03224646 0.0002549152 0.03830987 -0.013159049 -0.13788612 -0.0071937214 -0.0354203 -0.048829112
0.0090679955 0.2582117 -0.0117267985 -0.080384634 0.03185098 0.10626572 -0.04090144 0.006393555
-0.03611116 -0.0034340646 -0.0027508738 0.040509235 0.029131396 -0.055829745 -0.083360285 -0.028376663
0.11483867 -0.014347267 -0.03740319 -0.05100727 -0.06831818 -0.0053520342 0.027696073 0.009053369
0.3800488 -0.043669026 -0.01629142 0.0066721626 0.20002963 0.14733924 0.01637836 -0.3400336
-0.053528637 -0.071607165 0.2627353 -0.043797642 -0.021242358 0.11917869 -0.041319516 -0.13692336
-0.047501888 -0.028598653 -0.033387072 0.16955845 -0.018837698 0.033514272 -0.013711229 -0.10228358
00000000: c744 f23b ffd9 18bd fa25 5c3c 6f06 90bd
00000010: 3625 b5bc a1bb b6bc 1db5 f6bc 69a7 e1bc
00000020: 27d3 7a3d e51c 55bb 53c6 703d ca77 693b
00000030: 266f 3ebd 5240 75be 7bcc 3fbc 67e3 d0bc
00000040: 34f6 88bd d456 edbc 20fb 3fbd 07e6 6dbc
00000050: a330 1fbd 77fa 51be bf02 733b 68f2 4e3e
00000060: 8dd9 5fbd 4c00 633d 9f33 0dbe 0772 113e
00000070: 0e06 babd b173 273d 5184 2fbd c8e8 24bc
00000080: a461 eabc 66ae 3fbd dd5f 36bd 619e 07be
00000090: 32c0 793c 06a8 2abe 099a 52bd 8b5a 15bd
000000a0: 315e 1dbd 6af4 a1bc 6c83 523d 35e3 413d
000000b0: f08d eb3b 8830 28be e26e a3bb 5d96 99be
000000c0: 6499 52be b211 41bd d376 6fbd 62f0 41bd
000000d0: 21ad 29bc ac02 1d3d 2d5c 01bd 2dee 85bc
000000e0: 91ac ec3b 894c 34bd edc9 37be 6b01 6dbc
000000f0: 3b5b 1cbe a433 b43b 44cd 8dbd 3da8 3abd
00000100: dd14 04bd 24a6 8539 cfea 1c3d 0d99 57bc
00000110: 0532 0dbe 4fb9 ebbb e014 11bd 0901 48bd
00000120: ee91 143c 5334 843e c221 40bc b3a0 a4bd
00000130: 2c76 023d d8a1 d93d 4588 27bd 0781 d13b
00000140: 4ce9 13bd 0b0e 61bb 0148 34bb 03ed 253d
00000150: f7a4 ee3c bbad 64bd ccb8 aabd 2d76 e8bc
00000160: 8930 eb3d cd10 6bbc 1634 19bd 00ed 50bd
00000170: 67ea 8bbd 1e60 afbb e0e2 e23c 9554 143c
00000180: c295 c23e 4bde 32bd 9675 85bc 28a2 da3b
00000190: 91d4 4c3e 19e0 163e e92b 863c e218 aebe
000001a0: d840 5bbd c7a6 92bd 3e85 863e 2865 33bd
000001b0: 7404 aebc f513 f43d a73e 29bd a335 0cbe
000001c0: 5791 42bd b947 eabc e2c0 08bd bba0 2d3e
000001d0: 8451 9abc 4346 093d 10a5 60bc 0e7a d1bd

fc2.weight f4 [84, 120]
-0.17255163 -0.018326871 -0.47224677 0.04435975 -0.008079875 -0.09009888 -0.0074259974 0.42900974
-0.05386729 -0.054288525 -0.07088582 -0.3874771 0.023284309 -0.4197147 0.16824435 -0.0067435876
0.054969076 -0.06668293 -0.034765065 -0.19248088 -0.07104866 -0.19739377 0.10609363 0.03294105
0.40934992 -0.0888779 0.09282661 -0.079854704 -0.001729621 0.33129606 0.04605283 -0.06170335
0.37419054 0.014672438 -0.0024052763 -0.07128462 -0.16415934 -0.15557401 0.009955648 -0.04759948
-0.036992278 0.085200265 0.3311773 0.57300764 -0.31532726 0.04117923 0.0040407926 -0.00780393
-0.08228455 0.011648864 -0.0031003254 0.1338394 -0.33710974 -0.19488475 0.061410844 -0.043821216
0.17647678 -0.18009609 0.034124065 0.28606218 -0.10958837 -0.13723089 -0.011814332 -0.08916355
0.033346444 -0.46789634 0.30929863 -0.3065318 -0.10397 0.30459717 -0.070221305 0.13888307
0.10920901 0.09204979 0.06934248 0.0026483214 -0.1322434 -0.21757196 -0.029360825 -0.25271317
0.08918026 -0.014268919 -0.11317624 0.14569758 -0.16433045 0.0585224 -0.12040472 -0.022142699
-0.17683052 -0.39721474 0.03500717 0.007964721 -0.067492515 -0.27364916 -0.33471465 0.17840675
0.010161558 0.026433587 0.3147787 -0.37501815 0.54191124 0.040244173 -0.25363994 0.25788832
-0.048402518 0.029909454 0.31625906 0.0089674955 -0.08526438 0.18423364 -0.035167858 0.07181856
-0.004885748 -0.03464775 0.02862523 0.056651335 0.03208998 -0.05914673 0.054058563 -0.08373091
-0.28649166 -0.08604923 -0.35922232 0.005465704 -0.050685458 0.07105772 -0.08834986 0.58357245
0.0008548659 -0.1524173 -0.15340552 -0.110472545 0.00872295 -0.11202427 0.14301203 0.039446853
0.16955003 0.070548564 -0.035631835 -0.11925859 0.041317094 -0.115692146 0.3863104 -0.03412362
0.5430502 0.06454987 0.19909719 -0.118078284 0.08088593 0.5021368 -0.047996644 -0.12206334
0.37663043 -0.08312115 0.06654785 0.01250842 -0.23137759 -0.3051086 -0.032653797 -0.029311122
-0.027975474 -0.0686321 0.4430321 0.5786089 -0.17595015 0.11503918 -0.04370276 -0.06688596
0.0053721913 0.10795908 -0.017801661 0.05721559 -0.23339374 -0.1648849 -0.036160737 0.090841234
0.21415049 0.00076240796 -0.0028325957 0.50854564 -0.004579556 0.014617977 0.039454482 0.00031917682
-0.013392241 -0.43042195 0.31532577 -0.30528834 0.12362323 0.47450536 0.05574786 0.26037437
-0.1239734 0.32969323 -0.07203085 -0.03802249 -0.16047898 0.10734645 -0.032781176 -0.22703315
-0.06613622 0.013124946 -0.15569764 -0.010536565 -0.38532674 -0.06596224 -0.036028635 0.019950999
-0.33480513 -0.26733464 0.04516057 0.08396851 -0.12817472 -0.17642862 -0.21118018 0.007200283
0.05570468 -0.0625815 0.45780528 -0.3097093 0.0025381432 -0.11846861 0.06554263 0.44513094
-0.009516221 -0.026732562 -0.009183045 -0.038651656 -0.09729978 0.19008335 0.056748092 0.12614807
-0.04573849 0.013080057 0.034377355 0.019992692 0.0569541 -0.05986421 -0.070351265 -0.10477895
-0.36378348 0.02924784 -0.7396215 -0.039012145 0.040286273 -0.103935994 0.01586364 0.39092636
-0.090684846 -0.008694597 -0.05978374 0.07070595 -0.012213806 -0.32027256 0.21903792 0.04440695
00000000: 60b1 30be 3c22 96bc 54ca f1be 92b2 353d
00000010: 7461 04bc c385 b8bd c855 f3bb 2aa7 db3e
00000020: f3a3 5cbd a55d 5ebd 962c 91bd 6663 c6be
00000030: bcbe be3c d8e4 d6be 3f48 2c3e 50f9 dcbb
00000040: 4127 613d 0f91 88bd d065 0ebd b519 45be
00000050: f681 91bd 9821 4abe 9e47 d93d 32ed 063d
00000060: 5096 d13e 9e05 b6bd e11b be3d dd8a a3bd
00000070: 73b4 e2ba a39f a93e e4a1 3c3d a7bc 7cbd
00000080: e795 bf3e aa64 703c d7a1 1dbb acfd 91bd
00000090: 6319 28be cb4e 1fbe 041d 233c acf7 42bd
000000a0: 3785 17bd 7a7d ae3d 1290 a93e a1b0 123f
000000b0: 9372 a1be 8dab 283d a068 843b 1cb8 ffbb
000000c0: cd84 a8bd e0da 3e3c d42e 4bbb 320d 093e
000000d0: a699 acbe de8f 47be f089 7b3d e07d 33bd
000000e0: 54b6 343e 1c6b 38be adc5 0b3d be76 923e
000000f0: de6f e0bd 4186 0cbe e690 41bc 619b b6bd
00000100: 4896 083d 1c90 efbe 645c 9e3e bcf1 9cbe
00000110: 39ee d4bd 29f4 9b3e 30d0 8fbd 5d37 0e3e
00000120: f9a8 df3d 9a84 bc3d 6e03 8e3d 768f 2d3b
00000130: d06a 07be 2fcb 5ebe 1d86 f0bc 9f63 81be
00000140: 24a4 b63d 2fc8 69bc f2c8 e7bd bf31 153e
00000150: 3e46 28be 2fb5 6f3d c096 f6bd 9b64 b5bc
00000160: 0f13 35be bb5f cbbe ae63 0f3d 767e 023c
00000170: 8439 8abd be1b 8cbe b85f abbe 42b0 363e
00000180: aa7c 263c 408b d83c ac2a a13e 6102 c0be
00000190: b2ba 0a3f 13d7 243d 18dd 81be f009 843e
000001a0: b841 46bd ac04 f53c b5ec a13e 67ec 123c
000001b0: 179f aebd bea7 3c3e 2c0c 10bd 9c15 933d
000001c0: a018 a0bb cdea 0dbd 757f ea3c 3b0b 683d
000001d0: c870 033d d743 72bd 836c 5d3d 1d7b abbd
000001e0: 09af 92be 943a b0bd fdeb b7be a619 b33b
000001f0: 8e9b 4fbd b686 913d c5f0 b4bd 0165 153f
00000200: 1419 603a 4813 1cbe 5616 1dbe 6e3f e2bd
00000210: b4ea 0e3c fb6c e5bd bf71 123e 0693 213d
00000220: 869e 2d3e c47b 903d b0f2 11bd d93d f4bd
00000230: 1d3c 293d 01f0 ecbd 7aca c53e 35c5 0bbd
00000240: 5705 0b3f b932 843d 22e0 4b3e 07d3 f1bd
00000250: 86a7 a53d 0a8c 003f 2198 44bd 58fc f9bd
00000260: b4d5 c03e 6c3b aabd 3d4a 883d 1ef0 4c3c
00000270: 3fee 6cbe 3237 9cbe fdbf 05bd e11d f0bc
00000280: d22c e5bc fd8e 8cbd 1ad5 e23e b61f 143f
00000290: 472c 34be a999 eb3d aa01 33bd 82fb 88bd
000002a0: 3509 b03b a619 dd3d cad4 91bc e55a 6a3d
000002b0: c5fe 6ebe 96d7 28be 481d 14bd f80a ba3d
000002c0: 444a 5b3e 55dc 473a 12a3 39bb 0c30 023f
000002d0: 1a10 96bb 3d80 6f3c 069b 213d 3057 a739
000002e0: 216b 5bbc 4460 dcbe 6172 a13e c14e 9cbe
000002f0: 2d2e fd3d 5ef2 f23e de57 643d ca4f 853e
00000300: c4e5 fdbd 8dcd a83e e984 93bd 78bd 1bbd
00000310: 9a54 24be 75d8 db3d 8e45 06bd 617b 68be
00000320: 6d72 87bd 030a 573c 346f 1fbe 8fa1 2cbc
00000330: 8c49 c5be 3617 87bd c392 13bd 4770 a33c
00000340: 946b abbe 16e0 88be 4afa 383d aff7 ab3d
00000350: 3c40 03be b4a9 34be 9e3f 58be 5af0 eb3b
00000360: 972a 643d bb2a 80bd 7465 ea3e 3892 9ebe
00000370: fa56 263b ac9f f2bd 373b 863d 34e8 e33e
00000380: ece9 1bbc 3ffe dabc 7b74 16bc 3351 1ebd
00000390: 1b45 c7bd 36a5 423e b070 683d f62c 013e
000003a0: 4858 3bbd bc4d 563c 45cf 0c3d b7c7 a33c
000003b0: b448 693d 2d34 75bd 5314 90bd 5996 d6bd
000003c0: d441 babe 2b99 ef3c d657 3dbf 33cb 1fbd
000003d0: 3803 253d 65dc d4bd 77f4 813c 8027 c83e
000003e0: fab8 b9bd c873 0ebc ccdf 74bd 48ce 903d
000003f0: 6a1c 48bc c4fa a3be 7a4b 603e 10e4 353d

fc2.bias f4 [84]
0.24875353 0.012393312 0.43263847 0.15164617 0.4498732 -0.09343076 -0.08187625 -0.06297163
0.2384537 -0.043830514 0.2906059 -0.023849417 0.2699052 0.24882445 0.23894069 0.33783904
0.33912355 0.21645631 -0.11162861 -0.047103923 0.06448222 -0.19598453 0.22817697 0.0063786223
0.09191153 0.4775987 -0.071355365 0.21686667 0.19960721 -0.06387389 0.38987452 0.032735363
-0.10283473 0.047582217 0.047981646 -0.13775261 0.011317719 -0.09275871 0.099508986 0.19773847
0.2879089 -0.0014866837 0.08876965 0.19040829 0.20776437 -0.17536446 0.23998706 -0.19225115
0.11625315 -0.085855 0.1844442 0.14532138 0.20884247 0.13016208 0.20994882 -0.1673666
0.2213775 0.10160358 0.25882152 0.25484553 0.17934783 0.041213233 -0.10514177 -0.029646818
0.27381954 -0.08869771 -0.056539595 -0.0877688 -0.06355231 0.4332034 -0.08492806 0.42953154
0.3581016 0.27316362 0.18492715 0.32001838 -0.14162874 0.34522694 0.61568284 -0.13358372
-0.05911997 -0.052805103 -0.074455835 -0.010664038
00000000: 3fb9 7e3e 510d 4b3c ca82 dd3e 2249 1b3e
00000010: c855 e63e a058 bfbd bcae a7bd 45f7 80bd
00000020: 352d 743e a087 33bd 4cca 943e da5f c3bc
00000030: 0431 8a3e d6cb 7e3e deac 743e 3df9 ac3e
00000040: 9aa1 ad3e b9a6 5d3e 8a9d e4bd 0bf0 40bd
00000050: 410f 843d 2bb0 48be 39a7 693e c303 d13b
00000060: 1d3c bc3d d187 f43e c322 92bd 4c12 5e3e
00000070: d565 4c3e 50d0 82bd a29d c73e 8415 063d
00000080: 049b d2bd 92e5 423d 6788 443d 050f 0dbe
00000090: f46d 393c 47f8 bdbd 5ecb cb3d f47b 4a3e
000000a0: cc68 933e d4dc c2ba ddcc b53d 64fa 423e
000000b0: 2fc0 543e be92 33be 2bbf 753e 7cdd 44be
000000c0: 2216 ee3d bfd4 afbd f1de 3c3e 21cf 143e
000000d0: cdda 553e 3549 053e d3fc 563e 2662 2bbe
000000e0: c9b0 623e 8a15 d03d 4184 843e 1d7b 823e
000000f0: f5a6 373e 35cf 283d 9154 d7bd e2dd f2bc
00000100: 1332 8c3e 25a7 b5bd 1096 67bd 21c0 b3bd
00000110: b727 82bd d6cc dd3e c3ee adbd 8feb db3e
00000120: 1859 b73e 1adc 8b3e 8b5d 3d3e 73d9 a33e
00000130: 2007 11be 96c1 b03e 649d 1d3f 2cca 08be
00000140: c827 72bd 2a4a 58bd 4d7c 98bd 38b8 2ebc

fc3.weight f4 [5, 84]
-0.19707623 -0.3826687 -0.7150939 0.32898596 0.46305785 0.051656432 0.028992882 0.09770075
-0.14931798 0.16717911 0.068624124 0.15606758 1.0250405 0.14521348 0.82000375 -0.6544763
-0.3326643 -0.048896205 -0.05070885 0.17831111 0.9054112 0.08518581 -0.5970645 0.4545175
0.041881546 -1.5179685 -0.049966812 0.3882091 -0.4961151 0.1668305 0.13249873 -0.12623368
-0.050789252 -0.1269926 0.18167806 0.37642586 0.20220596 -0.040837757 1.0140363 -0.3531707
0.60160476 -0.035076477 -0.5412788 0.15012868 0.519512 0.00658426 -0.53045744 -0.029689677
0.12376863 -0.018551607 -0.5328436 -0.059150666 -0.4042513 0.3533031 -0.41625866 -0.036262494
-0.5710457 0.10102595 -0.5795315 -0.43415302 0.809113 0.099929124 0.15653585 0.2187532
-0.5431246 0.02983513 -0.11747907 0.010972735 -0.10329433 0.057598345 -0.073122196 -0.1658736
-0.49570408 0.16933261 0.061705507 -1.3158128 0.5719796 -0.7539187 -1.2623211 -0.008124853
0.051769912 0.044624377 0.10207709 -0.07106878 -0.15134916 -0.079625115 -0.20325163 -0.448873
0.020155389 0.00041765915 -0.086339824 0.025328958 -0.73592764 0.15237473 0.16142058 0.020632498
-0.4478572 0.19960625 -0.27872398 0.026443869 -0.36068365 0.16184802 0.03872956 0.12259663
-0.13358569 0.14338475 -0.005987573 0.0672812 -0.51801467 -0.44812435 0.049136396 0.3904964
0.017991548 0.053489577 0.34365866 0.06951628 -0.07171276 0.13882278 0.12195496 0.18339945
0.22441438 -0.0547795 -0.56846577 0.06313076 0.36789685 -0.012557798 0.039783254 0.26395804
0.306805 0.057033658 -0.037333593 -0.05684609 0.1021621 -0.023727149 -0.046966966 -0.14045794
-0.07389944 0.12897603 -0.068991266 0.019695584 -0.13753872 0.23976465 -0.11515218 0.14320944
0.12791854 0.07192635 0.14467506 0.18357389 -0.22329313 -0.030941395 -0.08656453 0.055613965
-0.054968346 0.18167473 0.0646152 -0.4462052 -0.19986576 -0.21261215 -0.24915911 0.07437219
-0.06504936 -0.20665629 -0.8064461 0.12117887 -0.0047567976 0.004373347 0.023874903 0.047131937
-0.3246339 -0.8002748 0.14469676 -0.05840503 -0.30702743 0.063519254 0.040878225 -0.07020395
0.081624396 0.13431218 0.06408438 0.062645465 -0.36655366 0.104877986 -0.4373321 0.609034
0.13277978 0.14959407 -0.080527216 0.018390339 -2.332569 0.15746732 0.11013091 -0.35728484
-0.09592245 0.2079528 -0.020187834 -1.1572392 0.065404646 -0.003622995 0.014159196 0.116373755
-0.13902697 0.20043665 -0.09235385 -0.23840652 -0.08452693 -0.055903587 -0.31890824 0.20338403
-1.4407747 0.061438475 0.14233018 0.091124065 -0.17539054 0.1375974 -0.37163907 -0.15974298
0.053911924 -0.077824384 0.1557986 -0.31678578 0.047016572 -0.15684117 0.1332156 0.049387347
0.01695785 -0.033033222 -0.04514234 -0.50634044 -2.1625295 -0.03690382 0.07245759 0.0033810986
0.3230591 0.019732887 -0.12174622 0.052582968 -0.0866939 -0.08144064 -0.074969985 -0.478346
-0.036192246 -0.27729055 -0.44462532 0.29591954 -0.11051077 0.052470107 0.14288117 0.17436205
-0.021333989 0.05490775 0.071733534 -0.037406344 0.4696434 0.2642857 0.29641688 -0.055154808
00000000: 5ace 49be 27ed c3be 6510 37bf d970 a83e
00000010: eb15 ed3e b295 533d 7b82 ed3c 5517 c83d
00000020: d0e6 18be 0031 2b3e ce8a 8c3d 2ed0 1f3e
00000030: 8734 833f d8b2 143e c4eb 513f c28b 27bf
00000040: fa52 aabe 6347 48bd 15b4 4fbd 3097 363e
00000050: 07c9 673f e675 ae3d 38d9 18bf 85b6 e83e
00000060: fc8b 2b3d cb4c c2bf 00aa 4cbd 58c3 c63e
00000070: cc02 febe 9dd5 2a3e bfad 073e 6743 01be
00000080: 6408 50bd 590a 02be d009 3a3e e4ba c03e
00000090: 140f 4f3e 7e45 27bd f1cb 813f cad2 b4be
000000a0: c502 1a3f 5aac 0fbd 3f91 0abf 55bb 193e
000000b0: bdfe 043f c7c0 d73b 0fcc 07bf c437 f3bc
000000c0: 687a fd3d 8af9 97bc 7068 08bf f847 72bd
000000d0: 07fa cebe 25e4 b43e db1f d5be fb87 14bd
000000e0: 0d30 12bf b1e6 ce3d 2d5c 14bf 4e49 debe
000000f0: 0822 4f3f a4a7 cc3d ef4a 203e d700 603e
00000100: 370a 0bbf cd68 f43c de98 f0bd fcc6 333c
00000110: fa8b d3bd 3eec 6b3d 17c1 95bd c5da 29be
00000120: edcc fdbe 8765 2d3e eabe 7c3d 8e6c a8bf
00000130: 416d 123f d100 41bf bd93 a1bf 1a1e 05bc
00000140: b00c 543d 0dc8 363d cb0d d13d 828c 91bd
00000150: 46fb 1abe 7e12 a3bd 3221 50be afd2 e5be
00000160: ea1c a53c 43f9 da39 efd2 b0bd ad7e cf3c
00000170: c165 3cbf 1f08 1c3e 704b 253e 7c05 a93c
00000180: 8a4d e5be 9565 4c3e e9b4 8ebe d0a0 d83c
00000190: 87ab b8be 7dbb 253e e3a2 1e3d f113 fb3d
000001a0: b0ca 08be 74d3 123e 6733 c4bb baca 893d
000001b0: 9c9c 04bf 8e70 e5be 3f43 493d 25ef c73e
000001c0: 0363 933c e317 5b3d 07f4 af3e 8d5e 8e3d
000001d0: 24de 92bd 8f27 0e3e 86c3 f93d 11cd 3b3e
000001e0: e2cc 653e 7860 60bd f986 11bf b34a 813d
000001f0: fa5c bc3e 39bf 4dbc c4f3 223d 8225 873e
00000200: 8c15 9d3e 209c 693d 1ceb 18bd 72d7 68bd
00000210: 5d3a d13d 705f c2bc 6f60 40bd 35d4 0fbe
00000220: 9758 97bd 4b12 043e 4b4b 8dbd a258 a13c
00000230: f3d6 0cbe dd84 753e e8d4 ebbd 7fa5 123e
00000240: 14fd 023e 1f4e 933d b325 143e cbfa 3b3e
00000250: f4a6 64be cf78 fdbc bf48 b1bd 78cb 633d
00000260: 7d26 61bd f108 3a3e f954 843d 0275 e4be
00000270: 9ca9 4cbe 00b7 59be 9123 7fbe 7250 983d
00000280: 9938 85bd b59d 53be 4073 4ebf a12c f83d
00000290: e9de 9bbb 4b4e 8f3b 4d95 c33c 6b0d 413d
000002a0: 6a36 a6be cfde 4cbf 632b 143e 1d3a 6fbd
000002b0: b332 9dbe 6216 823d ed6f 273d 17c7 8fbd
000002c0: b12a a73d 2289 093e ac3e 833d 444c 803d
000002d0: ecac bbbe 45ca d63d fee9 dfbe a7e9 1b3f
000002e0: 6cf7 073e 302f 193e 74eb a4bd 56a7 963c
000002f0: cf48 15c0 1d3f 213e 518c e13d 0aee b6be
00000300: fd72 c4bd 94f1 543e f560 a5bc 6a20 94bf
00000310: dff2 853d c56f 6dbb f9fb 673c 5d55 ee3d
00000320: 165d 0ebe 443f 4d3e 0424 bdbd d720 74be
00000330: 741c adbd 29fb 64bd f147 a3be e743 503e
00000340: 4e6b b8bf e9a6 7b3d 01bf 113e 419f ba3d
00000350: 9499 33be 55e6 0c3e 7a47 bebe aa93 23be
00000360: c0d2 5c3d 6462 9fbd ab89 1f3e bf31 a2be
00000370: 7394 403d f99a 20be ac69 083e 634a 4a3d
00000380: 30eb 8a3c d84d 07bd 2de7 38bd 879f 01bf
00000390: e266 0ac0 7628 17bd a564 943d 6c95 5d3b
000003a0: 0168 a53e dda6 a13c 1556 f9bd 3d61 573d
000003b0: 928c b1bd 5aca a6bd dd89 99bd c4e9 f4be
000003c0: 523e 14bd 07f9 8dbe eea5 e3be c482 973e
000003d0: 7853 e2bd e5ea 563d 714f 123e f78b 323e
000003e0: 9ec4 aebc f3e6 603d 08e9 923d 6537 19bd
000003f0: 1a75 f03e 7550 873e f4c3 973e 02ea 61bd

fc3.bias f4 [5]
-0.14176716 -0.18719095 0.16272597 0.29362044 -0.053600106
00000000: 692b 11be fcae 3fbe a3a1 263e 6b55 963e
00000010: c98b 5bbd
